…
      "source_ref": {
        "page_index": 12,
        "page_number": 13
      },
      "context": "VGG16 是由牛津大學 Visual Geometry Group(VGG)在2014 年提出的經典 卷積神經網路（Convolutional Neural Network, CNN）架構。該模型以簡 潔且規則的層堆疊設計聞名，廣泛應用於影像分類、特徵提取及遷移學習 等任務。附圖程式碼載入了預訓練的VGG16 模型，並輸出其完整層級結構 及參數統計摘要（如附表）。請根據此資訊回答42~45 題。",
      "context_blocks": [
        {
          "title": "VGG16 模型摘要",
          "language": "text",
          "markdown": "----------------------------------------------------------------\nLayer (type) Output Shape Param #\n================================================================\nConv2d-1 [-1, 64, 150, 150] 1,792\nReLU-2 [-1, 64, 150, 150] 0\nConv2d-3 [-1, 64, 150, 150] 36,928\nReLU-4 [-1, 64, 150, 150] 0\nMaxPool2d-5 [-1, 64, 75, 75] 0\nConv2d-6 [-1, 128, 75, 75] 73,856\nReLU-7 [-1, 128, 75, 75] 0\nConv2d-8 [-1, 128, 75, 75] 147,584\nReLU-9 [-1, 128, 75, 75] 0\nMaxPool2d-10 [-1, 128, 37, 37] 0\nConv2d-11 [-1, 256, 37, 37] 295,168\nReLU-12 [-1, 256, 37, 37] 0\nConv2d-13 [-1, 256, 37, 37] 590,080\nReLU-14 [-1, 256, 37, 37] 0\nConv2d-15 [-1, 256, 37, 37] 590,080\nReLU-16 [-1, 256, 37, 37] 0\nMaxPool2d-17 [-1, 256, 18, 18] 0\nConv2d-18 [-1, 512, 18, 18] 1,180,160\nReLU-19 [-1, 512, 18, 18] 0\nConv2d-20 [-1, 512, 18, 18] 2,359,808\nReLU-21 [-1, 512, 18, 18] 0\nConv2d-22 [-1, 512, 18, 18] 2,359,808\nReLU-23 [-1, 512, 18, 18] 0\nMaxPool2d-24 [-1, 512, 9, 9] 0\nConv2d-25 [-1, 512, 9, 9] 2,359,808\nReLU-26 [-1, 512, 9, 9] 0\nConv2d-27 [-1, 512, 9, 9] 2,359,808\nReLU-28 [-1, 512, 9, 9] 0\nConv2d-29 [-1, 512, 9, 9] 2,359,808\nReLU-30 [-1, 512, 9, 9] 0\nMaxPool2d-31 [-1, 512, 4, 4] 0\nAdaptiveAvgPool2d-32 [-1, 512, 7, 7] 0\nLinear-33 [-1, 4096] 102,764,544\nReLU-34 [-1, 4096] 0\nDropout-35 [-1, 4096] 0\nLinear-36 [-1, 4096] 16,781,312\nReLU-37 [-1, 4096] 0\nDropout-38 [-1, 4096] 0\nLinear-39 [-1, 1000] 4,097,000\n================================================================\nTotal params: 138,357,544\nTrainable params: 138,357,544\nNon-trainable params: 0\n----------------------------------------------------------------\nInput size (MB): 0.26\nForward/backward pass size (MB): 96.93\nParams size (MB): 527.79\nEstimated Total Size (MB): 624.98\n----------------------------------------------------------------"
…
